…
, warmup_momentum=0.8, weight_decay=0.0005, workers=6, workspace=None
train: /home/blinx/qzy/ultralytics-main/datasets/my_yolo_emotion_dataset/train... found 11478 images in 6 classes âœ…
val: /home/blinx/qzy/ultralytics-main/datasets/my_yolo_emotion_dataset/val... found 1432 images in 6 classes âœ…
test: /home/blinx/qzy/ultralytics-main/datasets/my_yolo_emotion_dataset/test... found 1441 images in 6 classes âœ…
Overriding model.yaml nc=1000 with nc=6

                   from  n    params  module                                       arguments
  0                  -1  1       464  ultralytics.nn.modules.conv.Conv             [3, 16, 3, 2]
  1                  -1  1      4672  ultralytics.nn.modules.conv.Conv             [16, 32, 3, 2]
  2                  -1  1      6640  ultralytics.nn.modules.block.C3k2            [32, 64, 1, False, 0.25]
  3                  -1  1     36992  ultralytics.nn.modules.conv.Conv             [64, 64, 3, 2]
  4                  -1  1     26080  ultralytics.nn.modules.block.C3k2            [64, 128, 1, False, 0.25]
  5                  -1  1    147712  ultralytics.nn.modules.conv.Conv             [128, 128, 3, 2]
  6                  -1  1     87040  ultralytics.nn.modules.block.C3k2            [128, 128, 1, True]
  7                  -1  1    295424  ultralytics.nn.modules.conv.Conv             [128, 256, 3, 2]
  8                  -1  1    346112  ultralytics.nn.modules.block.C3k2            [256, 256, 1, True]
  9                  -1  1    249728  ultralytics.nn.modules.block.C2PSA           [256, 256, 1]
 10                  -1  1    337926  ultralytics.nn.modules.head.Classify         [256, 6]
YOLO11n-cls summary: 86 layers, 1,538,790 parameters, 1,538,790 gradients
AMP: running Automatic Mixed Precision (AMP) checks...
AMP: checks passed âœ…
train: Fast image access âœ… (ping: 0.0Â±0.0 ms, read: 46.5Â±50.1 MB/s, size: 60.2 KB)
train: Scanning /home/blinx/qzy/ultralytics-main/datasets/my_yolo_emotion_datase
train: New cache created: /home/blinx/qzy/ultralytics-main/datasets/my_yolo_emotion_dataset/train.cache
…
